model/range-profile-classifier-default.tflite (tflite, 20584 bytes, 8 tensors)

sequential/dense_3/MatMul f4 [6, 64]
000000 d2 5e 75 bb 88 6b 53 bf 7d 7c ed 3e 28 1c d1 3e
       -0.003744055 -0.82585955 0.4638404 0.40841794
000010 b9 e7 fa be c1 10 18 3f 65 fc ed be 86 b9 2a bf
       -0.49004915 0.59400564 -0.46481624 -0.66689336
000020 28 11 5e 3d 1b 7e 2c be 58 49 c2 3e f1 40 04 3e
       0.05421558 -0.1684498 0.37946582 0.12915398
000030 f4 57 20 3e be 7d ec 3e 1d ff d2 3e ba b0 a9 bf
       0.15658551 0.46189684 0.4121026 -1.3257058
000040 26 15 1e 3d e6 1c d0 be e9 08 67 bf ff b9 f1 3e
       0.038594387 -0.40647048 -0.9024797 0.47212216
000050 36 c5 5e be 1c 04 86 bf c9 82 ff 3c d7 a2 e5 3e
       -0.21754918 -1.0470004 0.031190293 0.448508
000060 11 36 45 3e 56 e7 d3 be 93 b2 7c be 96 4d 0e bf
       0.19258906 -0.41387433 -0.24677496 -0.55587137
000070 a6 d8 8c be 9c 0c 81 bf 2e 91 64 bf 1d d6 fa 3d
       -0.2750904 -1.0081973 -0.89284027 0.1224787
000080 24 9c 18 3e 40 d9 33 bf 1e 45 ee bd dd 82 d0 3e
       0.14903313 -0.7025337 -0.11634277 0.4072484
000090 ee 57 a9 bd f3 2a 8d 3c 6d ce a2 3e 4e 82 d7 be
       -0.082687244 0.017232394 0.31798115 -0.42091602
0000a0 c9 3f 34 be 34 f4 de 3d 5a c1 be 3d d7 7e a6 be
       -0.17602457 0.10886422 0.09314223 -0.32518646
0000b0 d0 64 6f bf 61 51 84 bd a0 93 30 bf bb 0a 80 3d
       -0.935132 -0.06460834 -0.6897526 0.06252047
0000c0 a9 8f 84 be 6a 03 c0 be 62 c4 5c be c0 42 16 3e
       -0.25890854 -0.37502605 -0.21559289 0.146739
0000d0 b3 0d 38 3e 1e 76 a0 be 1d 3e c4 3e 79 46 31 be
       0.17973976 -0.31340116 0.3832864 -0.1731204
0000e0 1f c6 f5 3d 6a d9 83 3e 5c 50 3e bf 37 78 72 bd
       0.12000679 0.2575181 -0.7434137 -0.059196677
0000f0 da 4f d0 bd 04 4c c1 3e 4d f2 3d be 67 81 01 be
       -0.101714805 0.37753308 -0.18549462 -0.1264702
000100 24 b2 f9 be 2a 3f e5 be 43 7a 5f be 18 c3 87 bf
       -0.48768723 -0.44774753 -0.21823983 -1.0606413
000110 d4 66 aa 3e 9e b9 a3 bd c3 10 33 bf b3 9c 4d be
       0.33281577 -0.07994388 -0.6994745 -0.20079307
000120 12 d5 b1 3e 32 49 3e bf 1e 9b 02 bf 97 87 ba 3e
       0.34732872 -0.7433044 -0.5101794 0.36431572
000130 f0 47 6a bc b5 87 6e bf a9 3c 3f 3c 1e c5 9c be
       -0.014299378 -0.9317582 0.011672177 -0.30619138
000140 71 39 df 3d 24 b8 3b bf d4 95 d1 be a8 71 22 3e
       0.10899628 -0.7332785 -0.40934622 0.15863669
000150 35 03 76 be 55 4c a5 be 2d f4 95 3e 9f 4f 5e bf
       -0.24024661 -0.322848 0.29287854 -0.8684024
000160 1b a2 4a bd e7 48 5e 3e 32 e8 4a 3e 86 98 69 3e
       -0.049471002 0.21707498 0.19815138 0.2281209
000170 31 26 3f be bd b3 00 bf 5e 12 b0 3e be 24 0c bf
       -0.18666913 -0.5027426 0.34389013 -0.54743564
000180 b4 77 89 3e f7 32 5d 3e 85 14 bf bb 74 be 78 bd
       0.2684914 0.21601473 -0.0058313035 -0.060728505
000190 23 6a 94 3c 06 59 8d 3e 11 59 2d bd 73 de 07 bf
       0.018117016 0.27606982 -0.04232127 -0.53073806
0001a0 6a b4 43 be e0 62 41 3e 57 b2 bc 3d 36 61 b9 3e
       -0.19111791 0.18885374 0.09213703 0.3620698
0001b0 47 68 93 3e 93 7f a8 bd 0c 81 ae 3d 4a 49 2f 3d
       0.28790495 -0.08227458 0.085207075 0.042794503
0001c0 45 ba 62 3d 64 54 29 bf 9d e5 77 bd d3 91 20 3e
       0.05535342 -0.66144395 -0.06052171 0.15680628
0001d0 03 ae f8 bd 25 52 67 be c4 a7 82 3d 5e 72 08 be
       -0.12142565 -0.2258993 0.06379655 -0.13324878
0001e0 62 aa 21 3e fd fd b4 3d 63 86 e3 be 6c b7 5f bf
       0.15787652 0.08837507 -0.44438466 -0.87389255
0001f0 3a 49 48 be 22 b1 84 be 5a 95 fb be 24 fa 48 3e
       -0.19559184 -0.25916392 -0.49137384 0.19626671
000200 ed b7 5b bf 70 1b 39 bf b1 16 a1 be c4 9f 2d 3d
       -0.85827523 -0.7230749 -0.31462625 0.042388692
000210 ac 13 84 be 92 8c af be 92 e6 3f 3f 10 ea 81 bf
       -0.25796258 -0.34286934 0.749612 -1.0149555
000220 ed eb a8 3e 6f 99 ea 3e 8c d2 5a 3d 68 a4 fc bd
       0.32992497 0.45820186 0.05342345 -0.123360455
000230 26 c4 7f bf 4e c9 c9 be b7 9f d2 be 97 e2 16 be
       -0.99908674 -0.39411396 -0.41137478 -0.14734875
000240 ff d5 9f bd 30 a2 f3 3e e9 83 0c 3e df 3d 2c 3d
       -0.078044884 0.47584677 0.13722195 0.042051192
000250 41 71 16 3e c8 e0 57 3e dc 43 1b be 77 72 78 3e
       0.1469164 0.21081841 -0.15162605 0.24262415
000260 d2 67 80 3e f5 56 a9 be c2 56 fc bd 68 34 62 3e
       0.2507921 -0.33074155 -0.12321235 0.22090304
000270 dd 21 85 be b5 13 a7 3f 17 e7 74 be ba 24 81 be
       -0.26002398 1.3052889 -0.23916279 -0.25223333
000280 73 0f 9b be 8e 0c c8 3e 46 2b 81 bb 68 60 58 3e
       -0.30285224 0.39072078 -0.003941926 0.21130526
000290 66 e6 50 be c2 fa 9e 3e 57 98 86 3e 3e 33 8f 3b
       -0.2040039 0.31050688 0.262881 0.004370122
0002a0 88 30 90 3e ef 59 a6 3d 98 4e 7e 3d c4 dd 1c be
       0.28162026 0.08122622 0.06208667 -0.15318972
0002b0 89 c8 65 be b4 3f dc be d3 5a b7 bc f5 c9 82 be
       -0.2243978 -0.43017352 -0.022382176 -0.25544706
0002c0 37 a8 34 be f4 90 a8 3e a8 b5 cd 3d da f7 1a 3d
       -0.17642294 0.3292309 0.10044414 0.037834026
0002d0 df 7a 4e bf 6e fe 8b 3e fd d3 de 3d 74 68 1e bc
       -0.80656236 0.27342552 0.10880277 -0.009668458
0002e0 a3 cb 95 bd 47 92 7a 3e 6a 82 0d 3e 0c 6c 95 3d
       -0.07314231 0.24469863 0.1381928 0.07295999
0002f0 bf 2b 9d bf 3f fe b2 3d 93 77 39 3e 1f 5e a5 3e
       -1.2278975 0.087399 0.1811202 0.3229837
000300 58 0f 8c 3f bf 8e 3d bf 45 4f c2 be d4 98 87 3e
       1.0942183 -0.7404594 -0.37951103 0.26483786
000310 56 1a 2f bd 6a b8 33 bf e9 f7 ef 3d 56 fe 27 3f
       -0.042749725 -0.7020327 0.11717207 0.6562246
000320 ce 6b 9c bf 61 64 bb 3e b1 5f 8d 3e 73 25 28 3e
       -1.2220399 0.3660002 0.2761207 0.16420536
000330 42 19 36 3e 9e 94 0f bf 98 6c c7 3e 8d ac 1b be
       0.17783073 -0.56086147 0.38950038 -0.15202542
000340 58 a0 9b bf 9e 8b b5 3e 5a a5 4e be 38 ce c0 3e
       -1.2158308 0.35458082 -0.20180264 0.37657332
000350 cb c6 5f 3e f6 8f 1f be fd db 04 bf 4f fb 1b 3e
       0.21853177 -0.1558226 -0.51898175 0.15232585
000360 c4 38 02 bf 22 3a c7 3e 66 dc 8a 3e da d9 cf be
       -0.5086787 0.3891154 0.27121276 -0.40595895
000370 5d 0f 3e bd 18 4a 31 bf 44 f7 1d bf e7 8e 4d 3e
       -0.04640137 -0.69253683 -0.6170542 0.20074044
000380 6c 2e c7 be da 37 b7 bd bc b6 60 3e 86 20 b3 3e
       -0.38902605 -0.089462 0.21944708 0.3498575
000390 9e 45 40 bf 76 ee 9b 3e 8d fb be be 9d a4 c2 3e
       -0.7510623 0.3045537 -0.37301293 0.38016215
0003a0 00 6d 02 bf 4f 9c 69 be ad dd 87 be c7 1f 30 bf
       -0.5094757 -0.22813533 -0.26536313 -0.6879849
0003b0 8f dc de 3e ea 5e 06 3e 82 c5 89 3e 14 2e 8d bf
       0.43527648 0.13122144 0.269085 -1.1029687
0003c0 aa f8 2f be 69 f0 88 3e 86 2c 0f 3d f4 91 74 bf
       -0.17184702 0.26745918 0.03495457 -0.95535207
0003d0 cb 9a 37 bf d4 08 5c be 1d a1 df 3e 58 51 94 bd
       -0.7172057 -0.21487743 0.43677607 -0.072420776
0003e0 a8 c2 a5 bf 52 f9 8f be 6b 8c 02 bf f6 e3 0a be
       -1.2950029 -0.28119904 -0.5099551 -0.13563523
0003f0 39 46 96 be 93 53 dc bd a1 d9 7a 3c ef 65 74 bf
       -0.2935045 -0.10758128 0.015310676 -0.9546804

sequential/dense_1/BiasAdd/ReadVariableOp f4 [64]
000000 66 5d 55 3b d8 d7 2f 3e 10 14 3b 3e 3b b9 b0 bc
       0.003255689 0.17172182 0.18269372 -0.0215727
000010 0b a5 be 3c 25 f3 dc 3d 8d 6d 3e 3c 10 d6 22 3e
       0.023272058 0.10788564 0.011622799 0.15901971
000020 fc f2 5e 3e b9 61 45 bc a1 5a f7 3d 9e 95 a5 bd
       0.21772379 -0.012047225 0.12077833 -0.08085178
000030 3a 13 b0 bd 69 dc a4 bc 2e 65 1e 3e 41 df a9 bd
       -0.08597417 -0.020124631 0.15468284 -0.082945354
000040 41 7f 43 3b 37 db 18 3d 0a c8 5b ba 44 15 2e be
       0.0029830488 0.037318435 -0.0008383995 -0.170003
000050 f0 ed 16 3e 8d 75 7d be 1f e7 1b 3e 1b 76 a8 3b
       0.14739203 -0.24751873 0.15224884 0.0051410324
000060 aa 86 49 3c 3b ad 2f 3e 6f 4f 1d 3e d7 3d 8c 3d
       0.012300173 0.17155926 0.15362333 0.068477325
000070 b0 d2 3d 3e bc d8 b6 bd 1a f8 21 bd 59 82 ad 3e
       0.18537402 -0.089280576 -0.03954325 0.3388851
000080 2e ae c7 3d 11 a2 16 be 10 1b d3 bb 96 8f b1 3d
       0.09750019 -0.14710261 -0.006442435 0.08669965
000090 3b aa be bd 25 1b 2b be 16 23 4b 3e 3e 07 36 3e
       -0.09309813 -0.16709574 0.19837603 0.177762
0000a0 3a a6 9c 3e b7 1a 9d 3c 3a e1 33 be 5e 92 b3 3e
       0.3059557 0.019177778 -0.17566386 0.35072607
0000b0 31 bc ba bc 81 d5 8f 3e 91 71 3d be 8f 77 88 be
       -0.022794815 0.28092578 -0.18500353 -0.26653716
0000c0 d9 e6 2d 3e 4b 1d ea 3b 5e b3 31 bc e9 6e b5 3e
       0.16982593 0.0071446053 -0.010845987 0.3543618
0000d0 9a 20 4f 3e ad a5 70 3e 8c f7 2e 3a 25 2f 04 be
       0.2022728 0.235007 0.00066744606 -0.12908609
0000e0 16 c2 21 bd be 17 98 bd d1 5f 96 bd 62 6c c8 bd
       -0.039491735 -0.074264035 -0.07342494 -0.097862974
0000f0 2b e5 d2 bd 00 f2 85 3d c9 f9 08 3e 57 d1 9c 3e
       -0.102976166 0.065402985 0.13376535 0.30628464

sequential/dense_2/BiasAdd/ReadVariableOp f4 [64]
000000 b9 27 4d 3c 4b f4 f5 3d 4f d0 bb 3d 8e 9f a8 3d
       0.012521678 0.12009486 0.09170591 0.08233558
000010 d7 0d 9a 3d 07 cb 80 3e 13 ae a2 3e 6c 73 95 3d
       0.07522171 0.25154898 0.31773433 0.072974056
000020 b6 c5 50 3d 0c 18 55 3d 49 db 05 3e e1 9f 5a 3e
       0.0509698 0.052024886 0.13071932 0.21350051
000030 68 6b 9a 3c 04 4a 42 bb 85 ee e9 bd cb 1e c0 3d
       0.018850043 -0.0029646168 -0.11422447 0.09380873
000040 d8 ea 71 bd fb 7d 92 3e 29 51 22 be f3 aa 05 3e
       -0.059061855 0.2861174 -0.15851273 0.13053493
000050 be 5f 76 bc e0 fb ec 3c b3 29 d4 3d bf 2d 75 3e
       -0.015037475 0.028928697 0.10359516 0.23943232
000060 1d ba 3f 3e df 48 98 3d 00 00 00 00 1f 0e 55 3e
       0.1872334 0.07435774 0.0 0.20806168
000070 bf 83 00 bd 1f 04 a8 3d b5 c4 95 bd 9a 19 2d be
       -0.031375643 0.08203911 -0.073129095 -0.16904297
000080 89 e8 d7 3d 11 0f ea 3d c7 d3 5c 3e b7 eb 34 3e
       0.105423994 0.11428655 0.21565162 0.17668043
000090 53 5b 09 be 5e 88 4a 3d 4f 75 45 3e ba fc 3d 3e
       -0.13413744 0.049446456 0.19283031 0.18553439
0000a0 c7 d7 19 be 19 c1 23 bd c1 c9 01 bd 7b 30 c5 3c
       -0.15023719 -0.039979074 -0.03168655 0.024070969
0000b0 49 7e 1d be b9 a4 d8 3a 6c 2f fb 3d 02 e5 e1 bc
       -0.15380205 0.0016528583 0.122649044 -0.02757502
0000c0 a5 6d d6 bc b4 6a 06 3d c2 0e 0c bd 94 88 32 3d
       -0.02617533 0.032816604 -0.03419376 0.043587282
0000d0 8a d4 05 be d2 a2 92 bd 52 06 40 be f4 23 d1 bc
       -0.13069358 -0.07159962 -0.18752411 -0.02552984
0000e0 00 cd 25 be 7e 05 6f 3e f0 7b 12 bc fd c5 02 bd
       -0.16191483 0.23341939 -0.008940682 -0.031927098
0000f0 e9 00 a5 3d 15 60 b0 bd 65 34 e7 3c 25 1b d1 3c
       0.08056814 -0.08612076 0.028223226 0.025525639

sequential/dense_3/BiasAdd/ReadVariableOp f4 [6]
000000 95 80 b0 3d 69 17 ff 3c ae f6 87 3b e9 09 fc bc
       0.08618275 0.031139093 0.0041492796 -0.030766444
000010 a5 74 6e be da af ea 3d
       -0.23286684 0.11459322

sequential/dense/BiasAdd/ReadVariableOp f4 [128]
000000 ab f5 5c bd 74 f7 eb 3c 28 a0 3f 3e 92 8e 11 bd
       -0.053945225 0.028804518 0.18713439 -0.035536356
000010 29 29 5a 3e 0c 27 c9 3d 34 e7 42 be d8 e3 48 3d
       0.21304764 0.09821901 -0.1903351 0.049045414
000020 b2 da 26 be 41 d1 e2 bd 7d 33 aa bd 98 9c 0c be
       -0.16294363 -0.11075068 -0.08310602 -0.13731611
000030 94 aa 01 3e 43 34 e2 3d 26 5d 4d bc e4 d8 7d 3e
       0.12662727 0.110451244 -0.012534415 0.24789768
000040 1e aa cb 3d 28 52 12 be fe 1e d1 3d 1e 21 a3 3c
       0.09944557 -0.14289153 0.102109894 0.019913252
000050 0a 2a 38 3e c7 0d ce 3d 36 f4 15 3c e4 62 52 3d
       0.17984787 0.100612216 0.009152463 0.05136384
000060 4f dc 2d 3e ad 18 b3 be d4 21 6a be c0 33 a6 3c
       0.16978572 -0.34979764 -0.22864467 0.020288348
000070 dc b6 c5 bd d3 d0 cd 3d a3 40 f5 3d 6b e0 db bd
       -0.09654018 0.10049596 0.11975219 -0.10736164
000080 cc 65 71 3e e0 1e 01 be 02 1d 73 3e 82 eb c7 3d
       0.23573989 -0.12609434 0.23741534 0.097617164
000090 7e 3b 0b be 1d 3d 7c 3d 16 48 54 3d 90 03 96 be
       -0.13596913 0.06158172 0.05182656 -0.29299593
0000a0 18 5e ce 3d 5b a6 d8 bc 52 bc 2f 3e 2c f9 e0 3d
       0.10076541 -0.026446512 0.17161682 0.10985026
0000b0 94 d1 8b bd 12 5e 06 bd 74 53 7b bd 2e 45 51 be
       -0.06827083 -0.032804556 -0.061358884 -0.20436546
0000c0 42 ff c2 bc eb fa 57 be 2c 93 7e be 84 29 5e 3e
       -0.023803357 -0.21091811 -0.24860829 0.21695524
0000d0 ce be 69 3e 85 de 82 be 88 dc e5 bc 81 70 2c be
       0.22826692 -0.25560394 -0.028059259 -0.16839792
0000e0 a3 36 66 bd bc 17 23 be 12 00 e1 bd 28 03 7c bc
       -0.05620445 -0.15927023 -0.109863415 -0.015381612
0000f0 dc 8e f5 bc 3e b3 22 3e 40 2f 75 bd 97 26 15 be
       -0.029975347 0.15888688 -0.059859514 -0.14565502
000100 b0 f6 82 3e e1 9f 04 bd a4 0f bd 3d 97 83 ac 3d
       0.25578833 -0.032379035 0.09231499 0.08423536
000110 54 38 a3 be 61 05 20 bc af 85 1c be 64 4d 81 be
       -0.31878912 -0.009766907 -0.15285371 -0.25254357
000120 b0 6d 53 3d 8f 43 06 3d 88 46 c3 3c 38 66 1a 3e
       0.051618278 0.032779273 0.023837343 0.15078056
000130 aa bf fe 3d 48 d7 b9 3d 4b e1 5e bd 00 b0 f4 3d
       0.12438901 0.09074265 -0.054414075 0.11947632
000140 79 a0 aa 3d 9d 33 a3 3c b0 0d c8 3e e5 86 1a 3e
       0.08331389 0.019922072 0.39072943 0.1509052
000150 00 3e 47 bc d8 9e 66 3d 38 fc 77 3e 7a 64 19 3e
       -0.012160778 0.05630383 0.24217308 0.14979735
000160 fb 60 d3 ba 9e 5b e6 3d af fa e1 bd ed 71 c0 3c
       -0.0016126925 0.11247943 -0.11034142 0.023491824
000170 26 6b 86 3e 9e 2f 06 3c d9 fe f7 bd 70 bb bc 3d
       0.26253623 0.008190064 -0.12109155 0.09215438
000180 f5 b6 9e 3e c7 9b 24 3e 0d c7 5e be 96 c4 76 3e
       0.3099896 0.1607505 -0.2175562 0.24098429
000190 d1 7f de 3c ad 49 85 be 1f 54 a4 bd cb ad 21 3c
       0.027160557 -0.26032773 -0.08023857 0.009868096
0001a0 d9 89 a0 bd 95 0a a6 bd 7e 90 60 be 9a a8 e1 bd
       -0.07838792 -0.08107487 -0.2193012 -0.11018486
0001b0 c3 01 05 bd 63 2e 20 bb 85 bd 9b be ee 0a 84 bc
       -0.032472383 -0.002444171 -0.3041803 -0.016118493
0001c0 26 0d 65 bd 2a 87 f5 bc f5 7c a3 bd e4 fb 92 bc
       -0.055920742 -0.029971678 -0.07982818 -0.017942376
0001d0 bf 6e 20 3d 5c be 04 3e cc 6e fe 3d 76 b7 cc bc
       0.039168116 0.12963241 0.124234766 -0.024989825
0001e0 b7 8c 0d 3e d7 f5 81 3d f3 52 19 3d de 24 d2 3d
       0.1382321 0.06345718 0.037432622 0.10260938
0001f0 dd c6 b7 bc 53 ac e9 bd 9a a3 35 be ae 78 52 bd
       -0.022433693 -0.11409821 -0.1773819 -0.05138462

sequential/dense/MatMul f4 [128, 6]
000000 94 c5 e4 3e c8 de 02 3f dc 6e 68 bd f7 4d d2 3d
       0.4468199 0.5112119 -0.05674635 0.10268777
000010 f0 eb 59 3d 23 66 f1 be a3 ea 4e bd c4 0e 87 3d
       0.053203523 -0.47148237 -0.050516736 0.06594613
000020 5f 13 38 be 99 dd b0 be ba f1 49 3e 0a 4d dc 3d
       -0.1797614 -0.34544066 0.19721118 0.107568815
000030 02 15 ae bd 56 3b b9 3e 2c 7b fc 3d 3b b9 36 be
       -0.08500101 0.36178082 0.12328181 -0.17844097
000040 64 34 ce 3d 7d b4 25 3e 98 89 a5 be 9c 47 c2 be
       0.100685865 0.16182132 -0.32331538 -0.3794526
000050 e3 99 e7 bd 40 d1 d5 3d 82 56 bd bd b7 47 c0 3d
       -0.113086484 0.10440302 -0.09245016 0.093886785
000060 c4 1f 3a 3e aa 1f a6 bd d3 89 5d be ce e5 1a be
       0.1817618 -0.08111508 -0.21634607 -0.15126726
000070 a7 a8 f8 3d 5c 5c a7 be 84 c1 8a 3e 96 75 ec 3e
       0.12141543 -0.32687652 0.27100766 0.4618346
000080 c9 5d 0f bb c3 04 b0 bd 8b 27 66 3d 6f 23 cc be
       -0.0021875969 -0.08594658 0.056190055 -0.39870784
000090 57 9f 81 3e b0 48 9b 3d 86 21 97 3d 1a 6f 92 be
       0.2531688 0.075822234 0.07379441 -0.2860039
0000a0 28 dc 89 3e 67 c1 1a 3e af 45 ae 3d 51 69 bd 3c
       0.26925778 0.1511284 0.08509385 0.023121508
0000b0 3e 23 b3 bd 0f ae d7 3d a3 e9 ab be bb bb d7 be
       -0.08746956 0.10531246 -0.33576688 -0.42135414
0000c0 2c f3 05 3c d0 2b 98 3e e1 4b 09 3e d9 81 b9 3e
       0.0081756525 0.29720926 0.13407852 0.36231878
0000d0 83 a8 38 3e c6 56 0d bf a8 ae 71 bd e1 27 94 3c
       0.18033032 -0.5521053 -0.059004456 0.018085422
0000e0 b5 cb 57 3e 01 1b 32 be c8 6e 93 be 68 8c 2e be
       0.21073802 -0.17393114 -0.28795457 -0.17045748
0000f0 54 5e 02 3e 3a 48 40 bc 6e 6c 2e 3e be ce 09 be
       0.12731296 -0.01173597 0.1703355 -0.13457772
000100 4d e9 15 be 47 63 58 bd b5 ae 50 3e 5c 9c b2 3e
       -0.14639778 -0.052829053 0.20379145 0.34884918
000110 15 1e a7 3d ea de a6 be 7e 60 f6 3d 9f 50 32 3e
       0.081600346 -0.32591945 0.12030123 0.17413567
000120 39 4f a8 be 2f 7d 93 3e 51 f9 80 3e 9d 5c d7 bd
       -0.32872942 0.28806445 0.25190213 -0.105157115
000130 0e 4e 6c be b7 47 80 be 67 28 5b be f4 cb df be
       -0.2307665 -0.25054714 -0.21402131 -0.4371029
000140 ec ad f6 bd 3c fa 1e 3e c1 72 b1 be 50 e9 45 3e
       -0.12044892 0.15525144 -0.34657863 0.19327283
000150 8c 3c 56 3e 45 2b 33 be 55 9a 79 bd 7a 97 90 bd
       0.20921534 -0.17496975 -0.060938198 -0.07060142
000160 fa 63 a2 be 36 02 78 3e 36 bd b9 bd 2f 7d cd 3e
       -0.317169 0.24219593 -0.09069292 0.4013457
000170 78 c5 0a 3e eb 62 fa ba de af 42 be 85 f9 2a be
       0.13551891 -0.0019102966 -0.190124 -0.16696747
000180 dc 3f 82 3e 8d 54 f3 bd 80 77 29 be c2 2f ec 3d
       0.25439346 -0.11881361 -0.16549492 0.115325466
000190 e6 38 64 3e 3c c1 04 3f 66 b2 2f be c2 3c 00 3f
       0.2228733 0.5185735 -0.17157897 0.5009271
0001a0 02 01 1d 3e fc bd e6 3d 12 c8 82 bd 1b 28 bd be
       0.15332416 0.112667054 -0.06385817 -0.3694466
0001b0 1d c6 2b 3e 35 c0 c1 bd 0f 69 16 3d 5e be 45 3d
       0.16774793 -0.09460489 0.036721285 0.04827725
0001c0 df d1 96 3e bf b3 c8 3e b4 72 8a bd cb db 77 be
       0.29456994 0.39199635 -0.06760159 -0.24204938
0001d0 90 1c 63 bd c6 0b c5 be fd b2 76 3e 30 c2 a1 be
       -0.05544716 -0.38485545 0.24091716 -0.31593466
0001e0 10 b3 b7 bd b6 31 66 3d b2 8c 6f be 6f 19 e7 3d
       -0.089697 0.05619975 -0.23393515 0.11284148
0001f0 99 60 e4 3c 49 24 91 be e6 40 e9 bd 03 da bc be
       0.027878093 -0.28347996 -0.113893315 -0.3688508
000200 38 ad 41 bd 6e 81 90 3e cd 31 ad be 58 e7 74 3b
       -0.047284335 0.28223747 -0.33827057 0.0037369337
000210 3e 43 9b be 65 a9 80 be d3 ea 8f 3d 15 0f d5 bd
       -0.3032474 -0.25129238 0.07027211 -0.10403267
000220 15 8e 8f be e7 b4 c9 3d 72 10 b6 be ee 11 18 be
       -0.28038087 0.098489575 -0.35559422 -0.1485059
000230 a7 98 ba 3d e5 70 2a 3d c1 6d b5 be 14 b9 bc be
       0.091111474 0.04161157 -0.35435298 -0.36859953
000240 19 97 9b 3d 49 e6 bf 3e eb 69 02 3e 9e f0 9e be
       0.07597179 0.3748038 0.12735717 -0.3104295
000250 01 e6 25 3e 79 ab 3c 3e 24 d0 9d be 73 ea d4 3d
       0.16201021 0.18424787 -0.3082286 0.1039628
000260 b2 54 98 be f1 18 56 3c c0 59 71 3e 1d 81 07 3e
       -0.29752117 0.01306747 0.23569393 0.13232847
000270 83 00 8d 3e e7 c7 b2 3e 67 50 a8 3d 1e c3 98 3d
       0.27539453 0.34918138 0.082184605 0.07459091
000280 62 03 8a 3e 75 d8 7b 3e 83 7f 73 be 05 d4 ce bd
       0.26955706 0.2459429 -0.2377911 -0.10099033
000290 18 a1 6b 3d db fa b3 3e 52 a0 89 be 0e 5b 45 3e
       0.057526678 0.35152325 -0.26880127 0.19273016
0002a0 1d 2f fe bd 73 8a 78 be a8 35 86 3d 7a 64 07 be
       -0.1241133 -0.24271564 0.06553203 -0.13221923
0002b0 f5 bc 1a 3d ee 44 bd be 20 c4 0c 3d 19 78 d2 3e
       0.03777786 -0.36966652 0.034366727 0.41107252
0002c0 26 cc 80 3e c9 43 dc 3d 92 9f ba 3e 55 65 85 3e
       0.25155753 0.107551165 0.36449867 0.26053873
0002d0 78 80 0a be a7 28 8b 3d 49 d7 95 3e d5 66 cd 3c
       -0.1352557 0.06794863 0.29265812 0.025073448
0002e0 d9 dd 79 be 44 31 b3 bd 19 4c 63 3e 21 5b e6 bd
       -0.24401034 -0.08749631 0.22196998 -0.1124785
0002f0 ce 88 87 3e 6b 0c 98 be a9 b9 b3 bb 7e fc 01 bd
       0.2647156 -0.29696974 -0.005484779 -0.031734936
000300 81 ce 0a 3d 5e b3 81 bc 54 16 50 bd 41 5b c4 be
       0.033888344 -0.0158326 -0.050802544 -0.3835087
000310 43 a8 c5 bd 24 c9 8d bd 76 f9 1c 3e 37 0f c4 be
       -0.09651234 -0.0692313 0.15329537 -0.38292858
000320 50 6d 3f be 69 ae ed 3d 87 f1 ae 3d 6e 31 89 3e
       -0.18694043 0.11605532 0.085421614 0.26795524
000330 4c 42 05 3e fe d5 ee 3d fb 85 4a be db 48 b0 bd
       0.13013572 0.116619095 -0.19777672 -0.08607646
000340 ea 61 a5 3e 84 62 78 be 33 55 5e be 29 33 8b be
       0.32301265 -0.2425633 -0.21712188 -0.2718747
000350 93 5c c0 bd 89 63 15 be d3 80 8b be 67 d3 58 3e
       -0.09392657 -0.14588751 -0.27246723 0.21174394
000360 01 e9 be be 79 a3 32 3e 0d 10 39 3d d4 68 5e 3c
       -0.37287143 0.17445172 0.045181323 0.013574798
000370 80 f0 60 3e 86 ec 94 3d 7a c7 32 3e 91 50 09 be
       0.21966743 0.07271676 0.17458907 -0.1340964
000380 cb f7 2f be 98 05 12 be 21 47 59 3e bb 0a 58 be
       -0.1718437 -0.14259946 0.2121854 -0.21097843
000390 78 9c 90 3e 07 cd 40 be 00 e4 9d 3d 02 da 06 be
       0.28244376 -0.18828212 0.07709503 -0.13169101
0003a0 a7 23 2d be 7f e7 5d 3e 75 7d 57 be e2 b5 a2 3d
       -0.16908132 0.2167034 -0.21043952 0.07944848
0003b0 c3 d2 a4 be 0f bc c1 3d 89 c5 94 3e e3 d2 27 3e
       -0.32192048 0.094596975 0.29056957 0.1638904
0003c0 67 60 4f 3d 83 27 64 3e 71 20 05 be d1 4f 46 be
       0.050629046 0.22280698 -0.13000657 -0.19366385
0003d0 d5 eb 71 3e 5a de 71 be 3e ae a9 be 9d cd 33 bd
       0.23625119 -0.23619977 -0.3314075 -0.04389726
0003e0 50 87 b3 be 0b 1f 03 be 33 87 7b be ac a1 c2 3c
       -0.35064173 -0.1280481 -0.24563293 0.023758732
0003f0 da b1 42 3e 93 51 9a be db 28 d2 3d 91 c6 21 3e
       0.19013157 -0.3014036 0.10261699 0.15798403

sequential/dense_1/MatMul i1 [64, 128] scale=0.016733753 zero_point=0
000000 06 00 e8 0b 00 03 f8 1a 0c 00 f6 02 fd 03 11 ff
       0.10040252 0.0 -0.40161008 0.18407127 0.0 0.05020126 -0.13387002 0.43507758 0.20080504 0.0 -0.16733752 0.033467505 -0.05020126 0.05020126 0.2844738 -0.016733753
000010 06 11 0e 08 fb 0d 0b ff f8 f1 eb fb 08 d6 fe f9
       0.10040252 0.2844738 0.23427254 0.13387002 -0.08366876 0.21753879 0.18407127 -0.016733753 -0.13387002 -0.25100628 -0.3514088 -0.08366876 0.13387002 -0.7028176 -0.033467505 -0.11713627
000020 fa fe f7 05 ff ff 0d f2 f4 f6 19 0c 05 0f 08 0a
       -0.10040252 -0.033467505 -0.15060377 0.08366876 -0.016733753 -0.016733753 0.21753879 -0.23427254 -0.20080504 -0.16733752 0.4183438 0.20080504 0.08366876 0.25100628 0.13387002 0.16733752
000030 f2 07 ef fe 09 00 fc 14 f5 01 07 fc f2 02 05 07
       -0.23427254 0.11713627 -0.2844738 -0.033467505 0.15060377 0.0 -0.06693501 0.33467504 -0.18407127 0.016733753 0.11713627 -0.06693501 -0.23427254 0.033467505 0.08366876 0.11713627
000040 ff 0d 09 fa f9 06 ef 05 06 1c 0b 0a 0d f6 06 fa
       -0.016733753 0.21753879 0.15060377 -0.10040252 -0.11713627 0.10040252 -0.2844738 0.08366876 0.10040252 0.46854508 0.18407127 0.16733752 0.21753879 -0.16733752 0.10040252 -0.10040252
000050 05 ef 10 fa ed 12 fe f9 0d ff fe 0f 0f fe f8 fc
       0.08366876 -0.2844738 0.26774004 -0.10040252 -0.3179413 0.30120754 -0.033467505 -0.11713627 0.21753879 -0.016733753 -0.033467505 0.25100628 0.25100628 -0.033467505 -0.13387002 -0.06693501
000060 0b 0f fe fc f3 0a 01 df 03 04 fb 00 fd 08 0b 02
       0.18407127 0.25100628 -0.033467505 -0.06693501 -0.21753879 0.16733752 0.016733753 -0.55221385 0.05020126 0.06693501 -0.08366876 0.0 -0.05020126 0.13387002 0.18407127 0.033467505
000070 01 ff 0a 01 f7 02 08 fe 11 00 02 f1 eb 06 14 07
       0.016733753 -0.016733753 0.16733752 0.016733753 -0.15060377 0.033467505 0.13387002 -0.033467505 0.2844738 0.0 0.033467505 -0.25100628 -0.3514088 0.10040252 0.33467504 0.11713627
000080 ec fb 16 f9 06 03 00 04 fd 08 05 05 0f f6 05 0b
       -0.33467504 -0.08366876 0.36814255 -0.11713627 0.10040252 0.05020126 0.0 0.06693501 -0.05020126 0.13387002 0.08366876 0.08366876 0.25100628 -0.16733752 0.08366876 0.18407127
000090 0e 08 10 01 fd f6 f6 0b 0e 08 f5 fc fa 0f 07 0b
       0.23427254 0.13387002 0.26774004 0.016733753 -0.05020126 -0.16733752 -0.16733752 0.18407127 0.23427254 0.13387002 -0.18407127 -0.06693501 -0.10040252 0.25100628 0.11713627 0.18407127
0000a0 10 08 fa 06 0f f1 0c 06 0d fc e2 07 0a fe e4 e4
       0.26774004 0.13387002 -0.10040252 0.10040252 0.25100628 -0.25100628 0.20080504 0.10040252 0.21753879 -0.06693501 -0.50201255 0.11713627 0.16733752 -0.033467505 -0.46854508 -0.46854508
0000b0 fd 02 00 f9 ec f3 fc ff f8 08 07 f4 04 00 02 12
       -0.05020126 0.033467505 0.0 -0.11713627 -0.33467504 -0.21753879 -0.06693501 -0.016733753 -0.13387002 0.13387002 0.11713627 -0.20080504 0.06693501 0.0 0.033467505 0.30120754
0000c0 1a f3 09 00 fb 08 f8 0a f7 f5 02 08 f8 09 f0 02
       0.43507758 -0.21753879 0.15060377 0.0 -0.08366876 0.13387002 -0.13387002 0.16733752 -0.15060377 -0.18407127 0.033467505 0.13387002 -0.13387002 0.15060377 -0.26774004 0.033467505
0000d0 00 fa 0e fe 08 03 00 07 fa f5 ee f1 08 f5 08 07
       0.0 -0.10040252 0.23427254 -0.033467505 0.13387002 0.05020126 0.0 0.11713627 -0.10040252 -0.18407127 -0.30120754 -0.25100628 0.13387002 -0.18407127 0.13387002 0.11713627
0000e0 07 f8 fd 0d fc f6 fe 00 00 08 f2 00 f3 03 08 f8
       0.11713627 -0.13387002 -0.05020126 0.21753879 -0.06693501 -0.16733752 -0.033467505 0.0 0.0 0.13387002 -0.23427254 0.0 -0.21753879 0.05020126 0.13387002 -0.13387002
0000f0 f7 e9 03 fd fd 14 0a 00 ec 03 0c f9 f7 05 f8 ef
       -0.15060377 -0.3848763 0.05020126 -0.05020126 -0.05020126 0.33467504 0.16733752 0.0 -0.33467504 0.05020126 0.20080504 -0.11713627 -0.15060377 0.08366876 -0.13387002 -0.2844738

sequential/dense_2/MatMul i1 [64, 64] scale=0.010044572 zero_point=0
000000 e0 e5 f9 11 f7 cf 09 0e 03 e4 e8 c0 b9 0c 0f fd
       -0.3214263 -0.27120343 -0.070312 0.17075773 -0.09040115 -0.492184 0.09040115 0.140624 0.030133717 -0.281248 -0.24106973 -0.6428526 -0.7131646 0.12053487 0.15066858 -0.030133717
000010 0f fd ae dc f0 f3 fa ec 0b 0b 02 01 aa f1 03 14
       0.15066858 -0.030133717 -0.8236549 -0.3616046 -0.16071315 -0.13057944 -0.060267434 -0.20089144 0.11049029 0.11049029 0.020089144 0.010044572 -0.8638332 -0.15066858 0.030133717 0.20089144
000020 cf d7 ef ff c7 f8 04 3b cf 0d bb fb 17 16 ba bf
       -0.492184 -0.41182745 -0.17075773 -0.010044572 -0.5725406 -0.080356576 0.040178288 0.59262973 -0.492184 0.13057944 -0.6930755 -0.05022286 0.23102516 0.22098058 -0.70312005 -0.6528972
000030 15 d6 f8 0e 13 a2 01 ec 21 c5 b4 fd d1 13 00 12
       0.21093601 -0.42187202 -0.080356576 0.140624 0.19084686 -0.9441898 0.010044572 -0.20089144 0.33147088 -0.59262973 -0.76338744 -0.030133717 -0.4720949 0.19084686 0.0 0.1808023
000040 15 2b f5 0e f8 0c 01 cd 87 ee 0c f9 f0 60 0f 26
       0.21093601 0.4319166 -0.11049029 0.140624 -0.080356576 0.12053487 0.010044572 -0.5122732 -1.2153932 -0.1808023 0.12053487 -0.070312 -0.16071315 0.96427894 0.15066858 0.38169372
000050 ed be 35 f6 08 ff 0d ff 03 06 1a f5 0e 1b 00 13
       -0.19084686 -0.66294175 0.53236234 -0.10044572 0.080356576 -0.010044572 0.13057944 -0.010044572 0.030133717 0.060267434 0.26115888 -0.11049029 0.140624 0.27120343 0.0 0.19084686
000060 07 03 ef 01 03 c8 cb 20 eb db ed 1e ec 11 0d f4
       0.070312 0.030133717 -0.17075773 0.010044572 0.030133717 -0.562496 -0.53236234 0.3214263 -0.21093601 -0.37164918 -0.19084686 0.30133715 -0.20089144 0.17075773 0.13057944 -0.12053487
000070 0b c8 05 2b cd 08 fc f8 cc 35 0f fa e6 c3 d4 f2
       0.11049029 -0.562496 0.05022286 0.4319166 -0.5122732 0.080356576 -0.040178288 -0.080356576 -0.52231777 0.53236234 0.15066858 -0.060267434 -0.26115888 -0.6127189 -0.44196117 -0.140624
000080 16 00 15 0b f6 f8 d4 e2 40 e9 0b f6 0a cb fd e0
       0.22098058 0.0 0.21093601 0.11049029 -0.10044572 -0.080356576 -0.44196117 -0.30133715 0.6428526 -0.23102516 0.11049029 -0.10044572 0.10044572 -0.53236234 -0.030133717 -0.3214263
000090 0e 18 d0 17 05 f0 17 f5 0b ce 0c 16 0c eb 22 09
       0.140624 0.24106973 -0.48213947 0.23102516 0.05022286 -0.16071315 0.23102516 -0.11049029 0.11049029 -0.5022286 0.12053487 0.22098058 0.12053487 -0.21093601 0.34151545 0.09040115
0000a0 15 f3 f4 0f f3 1f a1 04 10 f4 08 fc 00 08 fa dc
       0.21093601 -0.13057944 -0.12053487 0.15066858 -0.13057944 0.31138173 -0.95423436 0.040178288 0.16071315 -0.12053487 0.080356576 -0.040178288 0.0 0.080356576 -0.060267434 -0.3616046
0000b0 16 04 0e 01 20 04 15 ff 0d f0 16 ed 0f be 19 29
       0.22098058 0.040178288 0.140624 0.010044572 0.3214263 0.040178288 0.21093601 -0.010044572 0.13057944 -0.16071315 0.22098058 -0.19084686 0.15066858 -0.66294175 0.2511143 0.41182745
0000c0 16 0c f5 0a 17 f4 e6 e7 33 f2 ef fb 15 0f fd 2f
       0.22098058 0.12053487 -0.11049029 0.10044572 0.23102516 -0.12053487 -0.26115888 -0.2511143 0.5122732 -0.140624 -0.17075773 -0.05022286 0.21093601 0.15066858 -0.030133717 0.4720949
0000d0 1c 18 05 fe 35 f7 2d eb 2d 56 eb 04 09 0a 14 0f
       0.281248 0.24106973 0.05022286 -0.020089144 0.53236234 -0.09040115 0.45200574 -0.21093601 0.45200574 0.8638332 -0.21093601 0.040178288 0.09040115 0.10044572 0.20089144 0.15066858
0000e0 e7 f0 f8 13 0f 5e e8 f6 46 06 11 06 1b 39 e7 ec
       -0.2511143 -0.16071315 -0.080356576 0.19084686 0.15066858 0.9441898 -0.24106973 -0.10044572 0.70312005 0.060267434 0.17075773 0.060267434 0.27120343 0.5725406 -0.2511143 -0.20089144
0000f0 fb fc f3 27 02 12 0e 07 00 29 dd f4 e9 16 f5 26
       -0.05022286 -0.040178288 -0.13057944 0.3917383 0.020089144 0.1808023 0.140624 0.070312 0.0 0.41182745 -0.35156003 -0.12053487 -0.23102516 0.22098058 -0.11049029 0.38169372
